model.pth (torch, 839583 bytes, 6 tensors)

fc.0.weight f4 [128, 1500]
00000000: e060 823d 4193 f63d 04bc b53c 184e 11bc
00000010: 2f16 8dbc c760 e8bc e22b b1bc fc1f 8338
00000020: 50b0 ab3c 1c17 21bd 8798 4dbc f85e 9c3d
00000030: 50ac 7d3d 2d93 093f 5dd3 82bc 3528 023d
00000040: 2503 0a3e 94e3 9c3c a304 04bc adbd 923b
00000050: 78a9 04bd 1806 903b b4c9 de3c 2fa5 ea3c
00000060: 6714 bbbc 9061 dd3b 2f49 a93c 3a9a ea3e
00000070: 7b7a 0b3d 4358 3eba 5230 273d c3ac fd3d
00000080: 4472 22bc f15c 493c 846f 09bd e4fb 31bd
00000090: 7722 0abd a6fd d13a 2961 d23b 6a5b 12bc
000000a0: c5ef c23c 3876 433d 208c 273e 5499 47be
000000b0: f5d7 ffbd 9a9d 683c e2b4 e03d 596d 1f3d
000000c0: b8fa 713c e869 b3bc 3d6b 02bd bb38 d3bc
000000d0: 8b87 833c 7982 e8ba 83bd 20bd 5661 d1bc
000000e0: 95ac bf3c 82be edbe 0f1f 73be ef70 a2bd
000000f0: 9dab 733d 448f cc3d 9c60 c43c 1aab 51bb
00000100: dd1e f2bc a84d aebc 3e96 183a 6071 cd3c
00000110: f9f0 013c ebc0 d9bc 195e 3d3b b728 ba3c
00000120: fcac 02bf bd96 733d 4ab7 9cbd 8615 283d
00000130: ffdf f33d fc03 913b 15be ae3c 819b 08bd
00000140: d018 a7bb 2342 d2bc d806 433c 3a76 fd3c
00000150: 7aff 29bd 754e 30bc e87b de3c b895 d73d
00000160: 3b0b 143f dc54 98bc dba0 793d 3e01 ec3d
00000170: 5397 503c 9186 b8bb 3ea7 99bc 535d e0bb
00000180: d2e5 f9bb da7e 60bc 5483 d03b 4fd7 fd39
00000190: 74e1 bfbc 34f0 dfba 5fde ab3e f550 5e3e
000001a0: 9d88 92bd a953 b73d 3444 cb3d 7170 a83c
000001b0: 5272 2b3b e2be d5bc 2641 1fbd 5e1e b8bc
000001c0: e83a 3b3c 3498 1038 07ab 21bc b708 523d
000001d0: 6db8 7ebd 8dde 1e3e 3b3e 04bf 3378 abbd
000001e0: 4e9e c73d 35f7 ad3d 1ae1 f8bb af29 7bbb
000001f0: 411e 413b 1be1 32bd 350b 39bc f2b3 88bc
00000200: 3856 843c 8402 d5bc 1ad9 683c c1b7 01bd
00000210: bb19 78be 710f f0bd 7267 fdbd 95aa 813d
00000220: ed7f 9d3d 7754 cf3c d1e9 35bc 28ca 94bc
00000230: b20f d5bb 4d40 a6bc 4d0c 6b3c d2d4 abbb
00000240: 9b43 b7ba d143 f73c 9814 c7bc 9eb5 92be
00000250: 82bd fd3e ca96 3d3b ebf3 ae3d 8f5d 973d
00000260: c212 d63c 346c 743c 2324 8bbc 07b2 1fbb
00000270: 8cbe 92b9 8e1c a63c ee59 d13c 9288 24bd
00000280: 75e9 8dbb 82ec 90bd f815 0c3f 42af 393f
00000290: aad7 b4bd eb62 b53d ed93 8b3d f931 443b
000002a0: cfbd 70ba f0e1 1fbb a5ac 93bc 2c74 00bd
000002b0: d796 953c 0bd9 f13c e2f3 1cbd 8d09 b8bc
000002c0: c383 89bd 5e79 4c3f 3984 91be 0d35 d93c
000002d0: 3c76 8b3d 44bc bb3d 3d5b c1bb ed45 e83b
000002e0: 1a7e eebc bcd1 b9bc c47c e6ba 278a bd3c
000002f0: 8e51 543c 82a4 25bd e773 1b3c 0184 b7bd
00000300: d59f 723c 4108 2abf 537a 573d bed6 c73d
00000310: f270 c03d a42a e73c 6063 a83a d5e1 01bb
00000320: 7c3e 31bd f52f 0fbd 1ae8 4d3c cba0 2f3d
00000330: c57e eebb c47c 32bd 5b28 8ebd 0973 38bf
00000340: 8474 693c c9e2 9c3c 6b07 a23d 8ac2 ba3d
00000350: 3615 1c3d a5da a73c 849d 09bd 57af 34bd
00000360: 95a0 4f3b 7884 d13c ff5b d13c f3c1 48ba
00000370: dde8 10bd 4c86 bfbd 373d 0cbd 52b9 233f
00000380: 2ded 9e3c 6f46 2a3d 369b be3d 279a 2c3c
00000390: 97e3 67bc c038 493c 035f c9bc f746 f1bc
000003a0: 99d3 0ab7 e5cb 263c 3f95 2fbd f664 a4bd
000003b0: 07fc 51bc 7a65 3c3f b16e d63e 8992 e5bc
000003c0: 2761 b33d 9c92 eb3d 5975 0fbc 1246 153c
000003d0: 8207 73bb edbf 80bc 9244 abbc 889f a2bc
000003e0: c178 403c 283e febc c24a f7bd 5eae 5bbd
000003f0: 5d63 293f aac5 15bf 7551 af3d a840 423d
0.06366134 0.12039805 0.02218438 -0.008868717 -0.017222492 -0.02836646 -0.02162737 6.252524e-05
0.020958096 -0.03932868 -0.012548572 0.07635301 0.061931908 0.537402 -0.015969926 0.031776626
0.13477762 0.019151486 -0.008057746 0.0044781775 -0.03238818 0.0043952577 0.027195789 0.028643219
-0.022836877 0.006756015 0.02066478 0.4582079 0.034052353 -0.0007261077 0.040817566 0.12386467
-0.009914938 0.012290225 -0.033553615 -0.043453112 -0.033724274 0.0016021028 0.006420274 -0.008932928
0.023795972 0.047720164 0.16362047 -0.19492084 -0.124923624 0.014197731 0.10972001 0.03892264
0.014769249 -0.021901086 -0.03184055 -0.025783887 0.016055843 -0.0017739079 -0.039243232 -0.025559109
0.023397723 -0.46434408 -0.23742317 -0.079316966 0.059489835 0.09988263 0.023971848 -0.0031992854
-0.029555732 -0.021277264 0.00058207277 0.025078475 0.0079309875 -0.026581248 0.0028895198 0.022724492
-0.51045203 0.059469927 -0.07652147 0.04103615 0.11907958 0.004425524 0.021330873 -0.033351425
-0.0050993934 -0.025666302 0.011903487 0.030940164 -0.041503407 -0.010760893 0.027158692 0.105266035
0.57829636 -0.018595152 0.06094442 0.115236744 0.012731391 -0.005631276 -0.018756505 -0.0068470626
-0.0076262737 -0.013702119 0.006363312 0.00048416338 -0.023422934 -0.0017085136 0.33568093 0.2171057
-0.07154963 0.08951504 0.09925118 0.020561429 0.002616067 -0.026091997 -0.03888049 -0.022475418
0.011427619 3.4474026e-05 -0.009867436 0.051277842 -0.0621876 0.15514584 -0.51657456 -0.083725356
0.09746991 0.084944166 -0.0075951936 -0.0038324406 0.0029467496 -0.04367171 -0.011294176 -0.016687367
0.016154394 -0.026002176 0.014211917 -0.031669382 -0.24228565 -0.11721695 -0.12373246 0.06331364
0.076904155 0.02530883 -0.011103109 -0.018162802 -0.006502115 -0.020294333 0.014346194 -0.005243876
-0.001398194 0.030183705 -0.024301812 -0.28654188 0.49558645 0.0028928989 0.085426174 0.07390892
0.026131991 0.014918376 -0.016985005 -0.0024367587 -0.00027989259 0.020277288 0.025555577 -0.040169306
-0.0043308088 -0.0707636 0.5472102 0.7253305 -0.08830197 0.08856758 0.06815324 0.0029937013
-0.0009183557 -0.0024396144 -0.01802666 -0.03136079 0.018260403 0.02952244 -0.038318522 -0.022465492
-0.06714585 0.7987269 -0.2842119 0.026514554 0.06809661 0.09166768 -0.005900769 0.007088414
-0.029112864 -0.022683017 -0.001758479 0.023137165 0.012958897 -0.04044009 0.0094880825 -0.089607246
0.014808615 -0.66418844 0.05260689 0.09757756 0.093965426 0.028218575 0.0012846999 -0.0019818444
-0.04327248 -0.034957845 0.012567544 0.042877953 -0.0072782957 -0.043576017 -0.06941291 -0.7205053
0.014248971 0.019151108 0.07911571 0.09119137 0.038106166 0.02049 -0.033597484 -0.04411253
0.0031681408 0.025575861 0.025556562 -0.0007658295 -0.035378326 -0.09351787 -0.034238067 0.6395465
0.019400204 0.041571077 0.09306948 0.0105348 -0.014153383 0.012281597 -0.024581438 -0.029452784
-8.274707e-06 0.010180448 -0.04286694 -0.08027069 -0.012816436 0.7359234 0.41881326 -0.028023975
0.08758765 0.11502573 -0.008756005 0.009110944 -0.0037083332 -0.015716517 -0.02090672 -0.019851461
0.01174754 -0.031035498 -0.12074806 -0.053633086 0.6616724 -0.58504736 0.085604586 0.047424942

fc.0.bias f4 [128]
00000000: f3db a4bd 05c7 e0be 623b e4be 1f23 a6be
00000010: 965c c7be 840d ab3c 68cc b3be cbc5 4dbe
00000020: 8218 94be 24b1 00bf f6dd e5be a370 b9be
00000030: dc22 febe ade3 04bf e88d 10bf be25 07bf
00000040: 6733 84be d3cd 0bbf 1697 f2bd 05b7 e4be
00000050: 34f8 79be d136 f7bd 83a4 29bf 0ca5 15bf
00000060: 9aaf bcbe c7fa dbbe adf9 ecbe 1631 4bbe
00000070: 0887 efbe 7c56 15be d945 d9bd 8645 84be
00000080: cb3d b7be ec3b ecbe 876c fbbe 6f95 b3bd
00000090: 9dbc f8be 6602 abbe bdee b3bd a1ec d5be
000000a0: 5ddb 0ebf a527 38be c549 d5bd e80c febe
000000b0: b2a6 eebe a10c a9be 9aaf e7bd 4200 ffbe
000000c0: df21 0dbf 9ae2 e7be 810b fdbe ed85 d9be
000000d0: b807 41be 8d96 233d 01a8 00bf 1546 82be
000000e0: d10a 58be 281e 06bf 9145 bcbb 94f4 09bf
000000f0: 216f 5ebe 8c0e 7ebe 13c7 9ebe bd1b dabe
00000100: 41ca b6be d515 febe 72d7 ddbe 29fb 9fbd
00000110: 196b 84be d7e4 c9bd b6f1 efbe 5b8a b4be
00000120: f641 0abf f86c 11bf 2b5f 9cbe 359b 4dbc
00000130: d1b8 f8be 6c94 a4be 0d55 44be 978b f0be
00000140: e226 85be e8c3 dfbe 472d aabe 31e3 b2be
00000150: 8ff7 d5be 0e4a fcbd 607a 84be b5c5 10bf
00000160: 0fdc bcbe e9c3 7cbe dcbb cdbe 5114 1abe
00000170: 184d b3bd 1608 7abc f81a c6be e096 d6be
00000180: af12 eebe f34c 89be 927b cebd afcf 97be
00000190: 7d35 11bf f9e6 3fbe 0606 cfbe 8414 e6be
000001a0: d3ef 96bd 92af cebe f75a 143f d8a6 8fbd
000001b0: d6ec aebd e816 fcbe bc11 2dbe c884 f73e
000001c0: 7457 f7bb d7fc 60be eff4 a3be f942 91be
000001d0: c140 0abf 2d98 e4be 0076 70be e7d5 57be
000001e0: aed7 02bf a816 cabe c145 80be 5d2e c4be
000001f0: 0dd8 07bf 54fa dcbe 1456 21be 3c3b bdbe
-0.080497645 -0.4390184 -0.44576555 -0.3244867 -0.38937825 0.020880468 -0.35116887 -0.20094983
-0.28924948 -0.50270295 -0.44895905 -0.36218747 -0.4963597 -0.51909906 -0.5646653 -0.52791965
-0.25820467 -0.5461094 -0.118452236 -0.44670883 -0.24411088 -0.12071002 -0.6626665 -0.58454967
-0.36852723 -0.42964765 -0.46284238 -0.19842944 -0.46782708 -0.14583772 -0.106090255 -0.25834292
-0.35789332 -0.46139467 -0.49106237 -0.087687366 -0.485814 -0.33400267 -0.0878577 -0.41782096
-0.5580347 -0.17983873 -0.10414461 -0.49619222 -0.46611553 -0.33017448 -0.1131279 -0.49804884
-0.5512981 -0.4529007 -0.4942284 -0.4248499 -0.188506 0.0399385 -0.50256354 -0.25444093
-0.21097876 -0.52389765 -0.0057455976 -0.5388882 -0.2172208 -0.24810237 -0.31011257 -0.42599288
-0.35701182 -0.49626032 -0.43328434 -0.07811577 -0.2586296 -0.09858101 -0.46864098 -0.35261807
-0.540069 -0.568069 -0.30541357 -0.012549211 -0.48578504 -0.32144487 -0.1917307 -0.469815
-0.26006228 -0.43704152 -0.3323767 -0.34938958 -0.41790435 -0.12318812 -0.25874615 -0.56551677
-0.3688664 -0.24684109 -0.40182388 -0.15046813 -0.08754939 -0.015260717 -0.3869245 -0.41911983
-0.4649863 -0.2681652 -0.10082163 -0.29650638 -0.5672224 -0.18740453 -0.40434283 -0.44937527
-0.073699616 -0.40368325 0.579513 -0.07014245 -0.085412666 -0.49236226 -0.16901296 0.48343492
-0.007548267 -0.21971451 -0.32022807 -0.2837141 -0.54005057 -0.4464735 -0.23482513 -0.21077691
-0.5111035 -0.3947041 -0.25053218 -0.38316622 -0.5306404 -0.43159735 -0.15755492 -0.36959255

fc.2.weight f4 [128, 128]
00000000: e8bb 8fbe 1c72 aabd e4bf 8a3d 5eab 23be
00000010: a743 0c3e a97c 89be caea a03e b48f 1d3e
00000020: 2d63 0a3e b1c3 7b3d 5a66 38be 991a 063e
00000030: 3d05 7ebe b4d3 1dbe 60fe 11bc 8584 fb3c
00000040: c578 30bd 6501 2abe 7c34 6bbe d970 053e
00000050: fe90 3ebe b590 9ebd b235 d43c 08af 1cbe
00000060: 1896 573e c672 22be 63cb 58be 00b4 16be
00000070: 1dc7 34be 3984 3abe ffa1 a5be 2657 003d
00000080: 475e febe c57c 94be d628 c63d cf4e 97be
00000090: 5e11 483e 2a9a 65be 18da 1abe 53f9 91be
000000a0: f52d 363d 17bc e3bd 85b3 e6bc 5baf 7ebd
000000b0: 319d 003e 8df2 11bd 98e7 b43d fbc1 1dbe
000000c0: 8852 9f3b 1ea0 b73e 5db5 7abe 2b74 86bd
000000d0: 68aa 4ebe 5596 5f3d 1936 873c 788c f4bd
000000e0: 82d5 b3bd 979f b0bb 1c56 a2bc 26cb da3c
000000f0: 0f0b 98be 7b4b 7dbe 4784 14be 63d8 95bd
00000100: 69f3 61be 10bb 9b3e 5081 a6bd b837 9dbc
00000110: a5e3 7cbe 1aea cfbd c49f 4a3d f62c 61be
00000120: 48a5 afbd 7622 03bc c257 2f3d 1142 d1bd
00000130: 33e0 26be 99a7 813e 4d48 6bbe 9828 5bbd
00000140: 3fff 1a3e 271e 0cbe c7e6 783e 7a53 633e
00000150: da00 79be 4a8c 3fbe 02f7 1abe cfe0 4f3d
00000160: d4cd 8cbe c4fb c7be c23f ad3b edff fe3c
00000170: e424 cfbd ce9b eabd fc4b c43d a0a6 82bc
00000180: 1676 cd3d e62f 9c3d 69ff ce3d 01b0 cfbd
00000190: f411 d7bc 64e2 b93d 1a87 073e c985 373d
000001a0: 100c 5a3c e769 2b3e 6d48 f4bd bb34 84bd
000001b0: 8488 b03c c6ef 9bbd a08b 95bd 4ae6 6dbd
000001c0: f0f4 04bb 39dd 343d 5242 bc3d 76ff 703c
000001d0: 4409 55be 1b05 a2be fca6 d73d b3a0 b5be
000001e0: 204f f3bc 9154 19be a772 593e 9be6 843d
000001f0: 6b42 fc3c a150 113e 75ac 94be d75d 6e3e
00000200: f7a8 a6be 497a 233d d36a ca3d c3c6 3abd
00000210: a0e8 1dbd 56c7 df3d 054d 63be 8cb4 9ebc
00000220: 493f 1f3d 9eeb 06be e770 8c3d 3117 b0bd
00000230: f6b0 3bbd 0218 553e cdfe 15be 83cf 0dbd
00000240: 399d a63e 91a5 e6bb a5ce 9b3c bb78 92bd
00000250: 109b 013e 58dc fabd e5f6 1e3e d2de c8bd
00000260: 4589 f43b 5208 4c3d be5e bdbd 3e63 5ebd
00000270: 8ac8 94be fa77 a3bc 69d9 323e a500 853d
00000280: 60bc 42be dd3f 5b3e 89eb 183e 74d8 103e
00000290: f455 32ba 14aa ffbd ea3b 12be 97dd debc
000002a0: b4c0 1cbe 22e8 39bc 37c2 03be a033 dd3d
000002b0: 0f30 b63d b2d4 f8bd c98e 0c3e b4c0 2d3e
000002c0: d22b b83d 68d2 87be c56a 14bd 15aa f63c
000002d0: 1f38 acbd 5bbe 93be 754c 8dbd 4e89 2c3e
000002e0: a5dc 883d d3fd cbbd 7d55 9dbd c0eb 14be
000002f0: 5afb d83c 54d1 053e e7db 813e 673b 27bd
00000300: 99b0 d1bd 36b2 9dbd 4947 ecbd 64fd ccbd
00000310: 330e d1bd 1797 06bd 5543 043e 8721 a2bc
00000320: b92b 41be d1ae cabd e76f 8dbd 8a8e a4bd
00000330: 68db f2bd f400 c6be 1977 e9bd accd f9bd
00000340: 7b56 95be d6fc 60bc 37d0 ddbc 4136 f63d
00000350: 368e d43c 6cce c13d 48cd 55bd 8753 81bd
00000360: f15b cf3c 18e6 963d 752a 4f3d 5c85 a3bd
00000370: a129 883d ed4b 6fbc 9ec8 8e3e b009 b1bd
00000380: 1a29 83bd e9d1 81bd 8d53 83be 5169 35be
00000390: 07e6 2f3e dc05 2fbe 1c1e 453e 7fe7 763d
000003a0: 7ac1 84be f731 e6bd 5f47 72be f374 4cbc
000003b0: 47b3 103e ebe9 34bd bd94 cd3d 3e30 94bd
000003c0: 86cc 8b3d 2889 d3bd b625 76bd 1a5e c8bd
000003d0: 3855 383e 48fe 983e 537c 67bc 16e4 8dbd
000003e0: 7893 febc 7893 45bb 5354 be3d 439a 7c3d
000003f0: fa9d 863d 78d1 a23d 9f4a b53c 1774 b03c
-0.2807305 -0.08322546 0.067748815 -0.1598334 0.13697682 -0.2685292 0.3142913 0.1538685
0.13514395 0.061465923 -0.18007794 0.13096084 -0.24806686 -0.1541279 -0.008910745 0.030702839
-0.043083925 -0.16602094 -0.2296924 0.13031329 -0.18609998 -0.077424444 0.02590451 -0.15301144
0.2105335 -0.15864095 -0.21171336 -0.14717102 -0.1765408 -0.18214501 -0.32350156 0.03133311
-0.49681303 -0.29001442 0.096757576 -0.29552314 0.19537875 -0.2242209 -0.15122259 -0.28510532
0.04447742 -0.1111986 -0.028161773 -0.06217895 0.12559964 -0.035631705 0.088332355 -0.15406029
0.0048621334 0.35864347 -0.24483247 -0.06565126 -0.20182192 0.054586727 0.016505288 -0.11940855
-0.08780958 -0.0053901183 -0.01981645 0.026708197 -0.29695937 -0.24735825 -0.14503585 -0.07316663
-0.2206551 0.30416155 -0.08130133 -0.019191608 -0.24696214 -0.10152073 0.04946877 -0.21989807
-0.08576447 -0.008003822 0.0428083 -0.10217679 -0.16296463 0.2532318 -0.229768 -0.05350551
0.15136431 -0.13683377 0.24306785 0.22199813 -0.24316731 -0.1870586 -0.15133289 0.050751504
-0.27500784 -0.3905927 0.0052871415 0.031127894 -0.10114458 -0.11455499 0.09584805 -0.015948594
0.10032289 0.076263234 0.10107309 -0.10140992 -0.026253678 0.09076384 0.13235131 0.04480532
0.01330854 0.16739617 -0.119278766 -0.0645537 0.02154947 -0.076140925 -0.07302022 -0.05808095
-0.0020287596 0.044156287 0.09192337 0.014709344 -0.20804316 -0.3164452 0.105298966 -0.35474166
-0.029700816 -0.14973666 0.21235143 0.06489297 0.03079339 0.14190914 -0.29037824 0.23277985
-0.32550785 0.039911542 0.09883656 -0.04559971 -0.038551927 0.10926692 -0.2219735 -0.0193732
0.038878713 -0.13175818 0.06857472 -0.085981734 -0.04582306 0.2080994 -0.1464798 -0.034621727
0.32541826 -0.00703878 0.019019434 -0.07151934 0.12656808 -0.122490585 0.1552387 -0.098081246
0.007462653 0.049812622 -0.09246586 -0.054293863 -0.2905925 -0.01995467 0.17465748 0.064942636
-0.19017172 0.2141108 0.149336 0.1414507 -0.0006802969 -0.12483612 -0.14280668 -0.027205272
-0.15307885 -0.011346849 -0.12867056 0.10800862 0.08895885 -0.121499434 0.13726343 0.16968042
0.08992733 -0.26527715 -0.036234636 0.030110398 -0.08409142 -0.28856167 -0.06899349 0.16849253
0.066827096 -0.099605225 -0.07682321 -0.14543056 0.026487041 0.13068134 0.25363085 -0.040828135
-0.102387615 -0.07700007 -0.11537034 -0.10009268 -0.102077864 -0.032858934 0.1291631 -0.019791378
-0.18864335 -0.09896625 -0.06906109 -0.08035 -0.11858255 -0.38672602 -0.11399669 -0.12197432
-0.29167542 -0.013732156 -0.027076824 0.12022067 0.025946718 0.094632 -0.052197725 -0.0631476
0.025312396 0.07368106 0.0505776 -0.07984421 0.06648565 -0.014605504 0.27887434 -0.08644426
-0.06404324 -0.06338865 -0.25649682 -0.17715956 0.17177592 -0.17092079 0.19249767 0.060279366
-0.2592886 -0.11239999 -0.23660038 -0.012479055 0.14130889 -0.044168394 0.10038135 -0.07235764
0.06826119 -0.10328895 -0.060094558 -0.097835734 0.18001258 0.298815 -0.014128762 -0.069282696
-0.031076178 -0.0030147713 0.09293427 0.061670553 0.065731004 0.07950109 0.022130309 0.021539731

fc.2.bias f4 [128]
00000000: f815 95bd 7894 31be 158b 11be 97fa ddbb
00000010: d3b7 a3be 2891 d2be b6a6 2abe 2d13 33be
00000020: ac67 e4be cb99 e7bc f7ad 62be c0af f5be
00000030: 7691 4ebe 8120 8c3e 8953 80be 4100 493d
00000040: aa23 a7bd 2b5a 91be d92a 39be b9a1 ccbe
00000050: 9111 a5be 6844 e3be b919 97be 190d 96bd
00000060: de85 d8bc 6ebe 013d 4ae7 6ebe d297 c3be
00000070: e7db b9be 500e 06bf ef4f f6be 2a4a 5d3d
00000080: d6ed 88bd c5a1 6abe ea82 88bd 1d20 90be
00000090: b0e8 8e3d ac42 f63d df29 a6bd dfa1 3abe
000000a0: a788 8cbe ee0f 5cbd 9d6d 81be 9b8b cebe
000000b0: d59c 88be 7fe8 9bbd c53c 12be 5ff3 bdbb
000000c0: 6589 95be 4afb aa3e 2e90 e1bd d2b9 d2be
000000d0: 802d 323c 5397 0cbd 0329 d5be 1183 32be
000000e0: 86dc 0fbe 5a7f fbbc cd7a 89be 080b 54bd
000000f0: 9249 46be 8e8a a6bd be9b dbbe c44d 0cbe
00000100: c227 4cbe e87f 32be f556 20bd 9e69 9bbd
00000110: 3754 3d3d 20b1 db39 fb12 d7be 1ff5 68be
00000120: c00b a3be d5e4 0abe 1366 753d 5ccb adbe
00000130: 34f6 91be 7172 75bd a559 51be 5480 99bd
00000140: 60bb 7bbe 4548 cbbe c1de b3be 6565 bf3d
00000150: 74c9 b6bd b8c6 88bd 8bf0 b3bd 0315 62bc
00000160: 37c3 28be 4af6 9cbe 5656 41be 733a cbbe
00000170: 64e2 76be 37bf c93d a153 3bbe 349a c4be
00000180: 5078 d7bd 8f4c bdbd e321 97be 7b0c a5bc
00000190: 0de2 85bd 4d3f a3bd 3c27 29bd 14c3 86bd
000001a0: 8729 3a3e 1d6c 5ebe e3e5 cebd 4943 22bd
000001b0: c296 35be 5a55 a8be 1c89 7bbc 34bd 91be
000001c0: 8114 88be 54a6 243c 0610 6c3e b50a cdbe
000001d0: b678 843d a178 a5be 5c0a 893c ac8f 89be
000001e0: 4a16 7ebd e195 37be ec14 09be 50ec 89be
000001f0: 5610 81be 647b 85be a495 f7bd 4783 d7be
-0.07279581 -0.17341793 -0.14213212 -0.0067742574 -0.31976184 -0.4112637 -0.16665158 -0.17487784
-0.44610345 -0.028271576 -0.22136675 -0.4798565 -0.20172676 0.2736855 -0.25063732 0.049072508
-0.08161099 -0.28389105 -0.18082751 -0.39967135 -0.32239965 -0.44388127 -0.29511812 -0.07326717
-0.02643102 0.03167575 -0.23330417 -0.38201767 -0.36300585 -0.5236559 -0.4810786 0.054025806
-0.066859886 -0.22913273 -0.06665595 -0.281495 0.06977975 0.120244354 -0.08113455 -0.18225811
-0.27448007 -0.05372613 -0.2527894 -0.40340886 -0.26682153 -0.076127045 -0.14280994 -0.0057968344
-0.29206386 0.33394843 -0.11013828 -0.41157395 0.010875106 -0.034324 -0.41632852 -0.1743281
-0.14048967 -0.030700374 -0.26851502 -0.051768333 -0.19364002 -0.08131896 -0.4289226 -0.1370154
-0.19937041 -0.17431605 -0.03914543 -0.07588504 0.04622289 0.00041902903 -0.42006668 -0.22749756
-0.31844902 -0.13563855 0.0599118 -0.33944213 -0.2850815 -0.059923593 -0.20444353 -0.0749518
-0.24583197 -0.39703575 -0.35130885 0.09345511 -0.08925143 -0.066785276 -0.08786114 -0.013798955
-0.16480719 -0.30656654 -0.18880591 -0.3969303 -0.24109799 0.098509245 -0.1829362 -0.38398898
-0.10520995 -0.09243118 -0.2951804 -0.020147553 -0.065372564 -0.07971058 -0.041297182 -0.06580177
0.18179904 -0.2172093 -0.10102441 -0.03961495 -0.17733291 -0.32877618 -0.015352514 -0.28464663
-0.26578143 0.010049421 0.23052987 -0.4004723 0.06468336 -0.32318595 0.016728573 -0.26867425
-0.062032975 -0.17928268 -0.13386887 -0.26938105 -0.25207776 -0.26070702 -0.120890886 -0.42092344

fc.4.weight f4 [5, 128]
00000000: ada1 ecbd 2d57 b63d 8bea 00be 8d7e 90bc
00000010: 1570 133e b197 00bd 1dea f9bd 31a0 c53a
00000020: 512d 173d e577 acbd 82aa ecbe 3af8 9f3d
00000030: dbe9 553d db52 10bd 0295 74bd 6355 adbc
00000040: 20c7 9fbc 94bd 5e3c 014a d0bc 4962 303c
00000050: b2bf 543d 7caf 2bbc 25a6 973c 1409 e4bd
00000060: 43e7 aebe e929 ca3d 3bd8 ffbd c0e0 79bd
00000070: c17e 1e3d cc2e 13bd aaf4 26bd 18cf b6be
00000080: 7d05 b2bd b87e 2bbe ece4 023e 6eaf ff3d
00000090: bc23 26be bc96 23be cc07 07bd 9fd0 82bb
000000a0: 564c 94bd 114f eebd 5a81 1abe a25a b93c
000000b0: 6fd1 93bc 46da 253c d17b 233d d1a4 fcbd
000000c0: 6776 3c3d d79d b3bd e01a 50bc a640 bc3d
000000d0: a728 32be a1d5 de3d 97fc d33c f7ea ae3d
000000e0: 5410 4ebe a880 6cbe 97e0 d63d 2f25 3ebc
000000f0: c786 93bb 0e1a 833b 4916 1bbe 7183 8abd
00000100: d0da ac3c f8e2 123e 13a8 143e 2410 30be
00000110: 39bf 8fbd 16bd 7f3d 515a 7e3d 65ba 7f3c
00000120: ff7f 823d 279d f63d 034c d33c 7d04 aabd
00000130: c90a 52be 0867 f3ba 6630 f4bb 5edc 94bc
00000140: 1112 fb3d 10b1 45bc 8d5d 44be f3d4 2e3b
00000150: 3807 9d3d 63f2 8abd c774 74bd 72ac 113e
00000160: 8268 b1bd 9869 8fbc 264c bcbc acdb 01be
00000170: aee5 b73d 6b69 24be 6cbc 8e3d b8a3 803c
00000180: 0e79 393c b3e8 963d ae45 54be 0499 40bd
00000190: b29e 3f3d 8458 663d 6dee 9bbe 275b 883d
000001a0: b607 8abe dcd3 fb3d 6006 07bd c6bf 24bd
000001b0: 32da 5c3d 9026 653d 9e45 81be 774f b53d
000001c0: daf5 b13d 4e20 81be 9e5f 64bd 0d0e 613b
000001d0: 4359 6abe 9878 b23c f48d 02be b421 8d3c
000001e0: 93a0 5b3d f8da adbd 2b82 78bd f2d4 5dbd
000001f0: 2ea3 953d cbf7 66bd 27ba f9bc 82a0 56bd
00000200: d65a 2cbd 6112 21bd 4cb6 e8bc eb71 00bd
00000210: 9adc b4bd 2652 153d 547d 83bd 2a56 5dbe
00000220: 24b5 fabd 7967 a7bc 8a23 93be 0747 bd3b
00000230: a055 54be e2bb b0bd c107 d4bd 2370 483d
00000240: e82e 3cbd db0f 11be dc84 4bbd 156b 0abd
00000250: 545a 24be 5e63 febc 7c75 eebc 98c0 023d
00000260: dfa3 8dbe 36e6 6fbd 94c9 bbbc f7d4 2e3d
00000270: 4cab f23b c79e cfbd 9ba5 24be 80b4 a4bb
00000280: cdce afbc 27b5 c93d 89f3 9ebc 72a9 7cbd
00000290: 85eb 59bd 7de2 723c 56ce b83d 3c77 23bd
000002a0: d3d5 3c3c d6ae b13c 9e38 4ebe 19d4 62bd
000002b0: 0dbd bebc 617c 1bbd 1de7 a5bd b1f2 29bd
000002c0: cb32 593c c86c 0e3d 941b fe3c 7855 8fbb
000002d0: 3c96 f0bc d585 953d bc3e 8bbd 85a0 b73d
000002e0: da72 83bd b5c1 0ebd f2ee b7bd 0832 16bd
000002f0: f7a7 2cbd 31a7 1f3c a61e 433d 70d3 bdbd
00000300: db8f 833d 1393 85bd a1a1 86bc 013b f7bd
00000310: 33f4 1cbc afff e4bc 8c55 a1bd cce4 ae3d
00000320: 3630 4ebe b760 6ebd 1f41 09bd 2dde 173b
00000330: 39f3 a33d 69aa 02be c4d7 dcbc dc9c 5bbe
00000340: 226f 5abc ebeb 49be 2008 8b3d ac4d 893d
00000350: a803 f73c e6fe 2ebd 44d6 d93b a35d 9cbc
00000360: 47ee d03c 1bbc 57bd ff56 babc 08ce 92bd
00000370: 78e1 87be 778a 2bbc a519 28bc b9d9 fabc
00000380: feeb eebd 0e22 01be 75cd 03be 2fe5 02be
00000390: 2231 523d c191 0d3e 7428 1d3d ab9f 3d3c
000003a0: 851e a2bb 262b cd3c ab80 bfbd 7947 4fbe
000003b0: 2f59 d8bd 5262 37be 3c31 12be 144f fa3c
000003c0: bee2 d4bd 3c31 9a3a f286 f23c 6dc9 223d
000003d0: c583 b7bd d3ad 033d ab74 3dbd 44c8 57be
000003e0: 3ddd 72be 2924 b83c 0af6 aabd 9962 ccbc
000003f0: 39cf 03be ed32 00bd 95dd e83c 0b95 18bd
-0.11554275 0.08903346 -0.12589471 -0.01763847 0.14398225 -0.031394664 -0.12202857 0.0015077648
0.03690845 -0.084213056 -0.46223837 0.07811017 0.052224975 -0.035235267 -0.059712417 -0.02115888
-0.01950413 0.013595004 -0.025425913 0.0107656205 0.051940627 -0.01047885 0.018511841 -0.11134544
-0.34160814 0.09871275 -0.124924146 -0.061005354 0.0386951 -0.0359333 -0.040760674 -0.35704875
-0.08692453 -0.16747558 0.1278264 0.124846324 -0.16224569 -0.1597547 -0.03296642 -0.0039921547
-0.072411224 -0.116361745 -0.15088406 0.022626225 -0.018044202 0.010122841 0.039913002 -0.12336124
0.046011355 -0.0877034 -0.01270172 0.09192018 -0.1739832 0.1088059 0.02587728 0.0854091
-0.20123416 -0.23095953 0.10492056 -0.011605545 -0.0045021507 0.0040009087 -0.1514522 -0.06763352
0.021100432 0.14344394 0.1451724 -0.17193657 -0.07018895 0.062436186 0.06209785 0.015608405
0.063720696 0.12041693 0.025793081 -0.08301637 -0.20511927 -0.0018570134 -0.0074520586 -0.018171486
0.12259305 -0.012066141 -0.19176312 0.002667722 0.076673925 -0.06784513 -0.05968168 0.14225939
-0.086625114 -0.017506406 -0.02298553 -0.12681454 0.08979355 -0.16055839 0.06969532 0.015703067
0.011320366 0.073686026 -0.20729706 -0.047020927 0.046782203 0.05623676 -0.30455342 0.06658011
-0.26959008 0.12296268 -0.032965064 -0.040221952 0.053919025 0.05594498 -0.25248426 0.08853047
0.086894706 -0.2521996 -0.05575525 0.003434065 -0.22885613 0.02178602 -0.12749463 0.017227985
0.053619932 -0.084890306 -0.060671013 -0.05415816 0.07306515 -0.056388658 -0.030484272 -0.052399166
-0.042078815 -0.039324168 -0.028407238 -0.03135864 -0.08831139 0.036455296 -0.06420389 -0.216149
-0.12241581 -0.020435082 -0.28738052 0.0057762894 -0.20735788 -0.08629586 -0.103530414 0.048935067
-0.04594317 -0.14166205 -0.04968725 -0.033793528 -0.16050082 -0.031053241 -0.029108755 0.031921953
-0.27664086 -0.058569156 -0.022923268 0.042683568 0.007405674 -0.10137706 -0.16078798 -0.0050264
-0.021460915 0.09849005 -0.019403236 -0.061685033 -0.053203125 0.014824507 0.090237305 -0.039908633
0.011525589 0.021689814 -0.20138785 -0.055378053 -0.023283506 -0.037960414 -0.08100722 -0.041491214
0.013256739 0.03477171 0.03101901 -0.0043742023 -0.029368512 0.07300917 -0.06799075 0.089661635
-0.064183906 -0.034852702 -0.08981122 -0.036668807 -0.04215237 0.009744451 0.04763665 -0.09268844
0.06423923 -0.06522193 -0.016434493 -0.12071801 -0.009579706 -0.02795395 -0.07877645 0.08539733
-0.20135579 -0.058197703 -0.03350937 0.0023173199 0.080053754 -0.12760319 -0.026958354 -0.21446556
-0.01333216 -0.19718902 0.06788659 0.06704268 0.03015311 -0.04272356 0.006647857 -0.019087618
0.025504244 -0.052669626 -0.022746561 -0.071682036 -0.26539207 -0.010470024 -0.01026002 -0.030621396
-0.11666106 -0.12610647 -0.12871344 -0.12782739 0.051316388 0.13825132 0.038368657 0.011573712
-0.004947486 0.025044989 -0.09350713 -0.20242108 -0.105638854 -0.179086 -0.14276594 0.030555286
-0.1039481 0.001176394 0.029605363 0.039742876 -0.0896068 0.032148194 -0.04625384 -0.21072489
-0.23717208 0.02247818 -0.083477095 -0.024949359 -0.12872018 -0.031298567 0.028425971 -0.037251513

fc.4.bias f4 [5]
00000000: e091 8bbd 36c0 173f 7adb 903e 262c 9c3d
00000010: be4c 81be
-0.06814933 0.59277666 0.28292447 0.07625608 -0.25253862
