testmodel.pth (torch, 8535 bytes, 12 tensors)

rnn.weight_ih_l0 f4 [16, 15]
00000000: 5b4b de3d 202a c53d b4f1 803c 057b 88be
00000010: ad92 dfbc 24ea 8a3c ae38 68bc 5133 b5bc
00000020: d4de 553d 3123 123d cfb2 99bc 2a78 18bd
00000030: 1cd5 c43e 5702 323f 043d 833c 2719 97bd
00000040: d24a 78bc c2d3 c6bd 5801 30be 6914 56bd
00000050: b707 c73c 222f 143c 63d5 1bbd a572 6dbc
00000060: b8c4 72bd 24eb 083d a082 fdba 1984 d0be
00000070: d176 6fbf 0de2 c93d c935 bf3d 32d3 873d
00000080: c819 64bd 2ed6 5cbe 030a fcbc 9202 08bd
00000090: bb8a 27bc 03ff 833c e337 353d 28d6 1cbd
000000a0: 8e1d aabd a1bf 973b dec7 0abf ba52 36bf
000000b0: e147 863c 70f0 e63d 295b c83c cf1c a1be
000000c0: 9b88 4a3d f77b 02bc 1134 ff3c cdb6 8f3d
000000d0: 6f00 18bd a752 4b3d fbd6 c6bd 6900 8fbd
000000e0: 0231 f2bb 7282 273f 4c3c 0b3f 69e8 2cbd
000000f0: ba42 16bc e9cc d1bd 75e1 20be 7d61 88be
00000100: 7940 19bd 3a75 9ebc 3802 d03c 3339 f93c
00000110: 099e 023e 2ba8 d63d fb78 983c af2a e7bd
00000120: bf9f 17be 9b74 02bf 7b05 203e 9648 b13b
00000130: bc2d 23be 1255 303e 644c 193e 1662 e2ba
00000140: e076 ba3d 62c7 58bc 321a bfbc e025 8fbb
00000150: 0224 823d 96cd ba3c ad0c 923b f11c 84be
00000160: b1f9 233f 4077 063d 338f abbc 8aa5 243e
00000170: 6570 ddbd 50cb 12bd 83da 153d f955 a3bd
00000180: 6e06 6f3c 0e4c 2b3b d81b d43c 1dde 91bd
00000190: 5af7 ef3c 3ffa 87bc 31e1 003f 2d27 193f
000001a0: c6ea bf3d 2761 913d a28c 5c3c a551 313d
000001b0: b790 673b f89e 03bd 65b3 d03c 63f9 0c3d
000001c0: 8c2c fabc 9c26 26bd 621b a5bd a3d9 a2bc
000001d0: 8df9 993d d8cb c5be d798 553f b426 623d
000001e0: 88d4 8c3d 763d 033d d56f 24be 4c51 1cbe
000001f0: d1b0 cfbc da88 1abe d140 193d cb4a 28bb
00000200: 1bab 4b3c a166 c3bd f99d d93c 2255 e1bb
00000210: 7a50 19bf bb64 adbe aaca 2d3d ddb3 a2bd
00000220: 5252 233e 8375 b83c 3517 f03d 4a72 aa3d
00000230: 9189 eb3b 826f 8a3d 26bb 513d ac04 14bd
00000240: 833a b0bb 1ca0 393c 688e 573c ea18 babc
00000250: f61c 3dbe 5eb5 14bd e8f9 aebd cd7c 6bbe
00000260: febe b1bd 8c5f 2bbd e598 0ebd c7f1 8f3c
00000270: 739c 13bd 98dd 3f3d c9f9 a53d 9ffa 513e
00000280: 16d2 32bd d364 33bc 4b27 21bd 640a f63e
00000290: a4aa c9bc b104 4dbd 761e 1bbe 687b 96be
000002a0: a036 fdbd 3e4a 0dbd aafd c0bd b611 c93c
000002b0: 7936 d1bb 785e 133e fe6f 33be 0e50 9e3a
000002c0: fbe4 63bc 1bb5 0b3e 901c 80bd 9cf8 6a3d
000002d0: 8b67 0c3f 0ad9 9cbc 6f1b 0e3e 0bb9 093d
000002e0: e30f 893c fc9b 17bd 4782 a2bd 256b 843d
000002f0: cfd6 78bd 9e40 873d e4b1 29bc 4acb 423b
00000300: 6341 b2be 1c4a 34be 520f b1bd 1571 a2bd
00000310: 991b 6fbe c8b8 e53d 093a ccbd 1723 b1bc
00000320: e944 393d 523a 1fbd 2463 20bc 0d81 913c
00000330: d650 debc 493a 2c3c f11c 4abc c35f 4c3f
00000340: 2f4f 92bd b319 5dbd 5229 8dbe 487a 933d
00000350: 678b e0bc d9c0 6fbe 7e16 d73c f348 b4bb
00000360: ddd1 6a3d 50e8 51bd 1972 b13c 040b 8abd
00000370: 0da3 16bd ea61 43bd cdb5 b1be 77d1 243f
00000380: ce22 07be 4757 1dbc d14b f3bd f881 ce3d
00000390: fdae 5cbe 3a49 ab3d 7a03 9b3d 287d bf3d
000003a0: 65ac 20bd 344c b43d 456b 0f3d f1b1 acbc
000003b0: 7c81 2abc 3251 163f b388 793f a6d7 70bc
0.10854217 0.09627175 0.015740253 -0.26656356 -0.02729162 0.01695735 -0.01417367 -0.022119196
0.05221446 0.035678092 -0.01876202 -0.037223972 0.3844384 0.6953482 0.016020305 -0.07377844
-0.015154557 -0.09708358 -0.17188013 -0.05226556 0.02429567 0.00904444 -0.0380453 -0.014492665
-0.059269637 0.033427373 -0.0019341297 -0.40725783 -0.93540674 0.09857569 0.093364306 0.06632079
-0.05568865 -0.21566078 -0.030766493 -0.033205576 -0.010225947 0.01611281 0.04424275 -0.038290173
-0.08306418 0.0046309982 -0.54211223 -0.7121998 0.016391696 0.112763286 0.024457531 -0.31467292
0.049446683 -0.007964126 0.031152757 0.07017288 -0.03710979 0.04963937 -0.09708973 -0.069825
-0.007391096 0.6543342 0.5438888 -0.04221383 -0.009171182 -0.10244162 -0.15711005 -0.26636878
-0.037415 -0.019343007 0.025391683 0.030422783 0.12755598 0.10481294 0.018612375 -0.11287438
-0.14807032 -0.50959176 0.1562709 0.0054102642 -0.15935415 0.17219952 0.14970547 -0.0017271664
0.09104705 -0.01323113 -0.02332792 -0.0043685287 0.06354524 0.02280311 0.0044570775 -0.2580333
0.64052874 0.03282857 -0.020942306 0.16078773 -0.10812453 -0.035838425 0.036585342 -0.07975382
0.014588935 0.0026137861 0.025892183 -0.07122443 0.029292751 -0.016598819 0.50343615 0.598254
0.09370951 0.070986085 0.013461264 0.043290753 0.003533406 -0.032134026 0.025476167 0.03441752
-0.03053882 -0.040564165 -0.080618635 -0.019879168 0.07518301 -0.38632083 0.8343634 0.05521269
0.068764746 0.032041036 -0.16058286 -0.15265387 -0.025352867 -0.15091267 0.03741533 -0.0025679346
0.012430931 -0.09541059 0.026564585 -0.0068766037 -0.5988842 -0.33865914 0.042429604 -0.079444624
0.15949371 0.022516971 0.117231764 0.0832258 0.00718803 0.0675955 0.05120387 -0.036137268
-0.005378069 0.011329677 0.013156511 -0.022716958 -0.18468079 -0.036305778 -0.085437596 -0.22996826
-0.08679007 -0.041839167 -0.03481378 0.017571343 -0.036037873 0.046842188 0.08104283 0.2050576
-0.043657385 -0.010949331 -0.039344113 0.48054802 -0.0246175 -0.050053302 -0.15148339 -0.29391026
-0.123639345 -0.03449463 -0.094233826 0.024544578 -0.0063846675 0.14391506 -0.1752319 0.0012078302
-0.013909574 0.13643305 -0.06255448 0.057366 0.54845494 -0.019146461 0.13877653 0.033623736
0.016731208 -0.037013993 -0.07935005 0.06465749 -0.060751732 0.066041216 -0.010357354 0.002972322
-0.3481551 -0.17606395 -0.086455 -0.07931725 -0.23350371 0.11216885 -0.09972007 -0.021623177
0.045231733 -0.038873978 -0.009789262 0.017761732 -0.027138155 0.010511943 -0.012336002 0.7983362
-0.07144009 -0.053979587 -0.27570587 0.07201058 -0.027410222 -0.2341341 0.026255842 -0.0055018603
0.057329047 -0.05124694 0.021660851 -0.06740382 -0.03677659 -0.0477008 -0.34709015 0.6438212
-0.1319687 -0.009603328 -0.11879695 0.10083383 -0.21551128 0.08363576 0.075690225 0.093500435
-0.03922691 0.08803597 0.03501441 -0.021080943 -0.010406848 0.58717644 0.9747421 -0.014699852

rnn.weight_hh_l0 f4 [16, 16]
00000000: a9d5 253f 8cbf 85be e4c8 96be 0369 26bf
00000010: 7b65 93be ed3c ea3e 6f0a 9cbe ce9c aa3e
00000020: 62cd bfbb 5886 873e fcc8 59be 21b4 4c3e
00000030: 6520 55bd d9bd 32be 0546 bbbd a7ef 8f3d
00000040: efad 66bd a552 42bd 372c aebe c420 933d
00000050: fd92 32be 76b5 ccbe ddf1 a43e ca1a 473e
00000060: 44aa c0bd f5b9 9b3e 309a dfbc 41b9 1e3d
00000070: c4f1 8a3e b527 91be d6b0 f33d 9af1 943e
00000080: 9cb0 ce3d 4771 833e fdde c7bd 6859 cdbd
00000090: 69bd e53c 2d48 483d 5a56 a53e f5d7 c8bd
000000a0: 9133 d7bd 1479 8bbe 60c2 323e 602e 18bb
000000b0: 92ec 9dbe 9d17 993e 16f8 bebe 870d f13d
000000c0: 9214 48be e00d 983e 7954 813e 05fc 00bf
000000d0: dea5 293c b9db a9be 5656 8abe 5fb4 62be
000000e0: 2fe2 79be c40c 19be 7e3f 833d 13be 90ba
000000f0: 9d62 f03d 8674 2c3e ae5d 99bd 4568 a4be
00000100: c404 05bf cd83 213e cc63 a83e 712d d73e
00000110: d754 a93e 4781 20bd 193a 50be 7afe 98bc
00000120: 2b10 eebd 5cae ccbe 391c d63e 283e f2be
00000130: 06e5 20be 9505 2bbe 61ef 9bbe 438a 4bbd
00000140: 782a e33c 04bb 9a3e 5ac2 933e b004 9bbe
00000150: 68ad 56be bd44 953e bfff 113d fef2 483e
00000160: be4c 0f3d 209a e1bd 14d7 a5be c73f 683e
00000170: 472b 983d d4b7 a9be bf89 ee3e 22fe c6be
00000180: 85a3 f0bd 29ae 22bd 2656 83bd 5dc0 383f
00000190: 4803 5fbe efae 583e 7987 b4be 797a 2a3e
000001a0: ead9 c53e 9a16 ddbe 9663 cf3e 59e2 debe
000001b0: 4605 cdba 09bf 993e 1217 20bd dedc 4a3e
000001c0: 6235 ebbc 006c 703e 73e2 c13d 4591 fabe
000001d0: 900d 453d b079 7dbe 1caa b6be 085c 8f3e
000001e0: 793b 683e a351 953e 9c09 043e 5191 27bd
000001f0: d11e a93e 58fd 30be 2ddf f83e d935 20bc
00000200: 1da7 943e 1a71 05be ff40 c1be 46a7 cc3e
00000210: cd3e 833e 7c22 e43d 965c c6be c83b 743e
00000220: 69c1 d83d f053 00be 79a2 623e 7bf1 a7be
00000230: 28b3 063d 02f6 c83d d440 003d 96d4 3c3e
00000240: 24cd 7fbe d4b8 0abf ced1 883e cb7a 0f3f
00000250: 6ba9 a43e 110f 393d 190e 433e 6521 583d
00000260: 67fd a03d bf0b 233e 4795 b43e b235 cebe
00000270: 8d5b 0e3e a57a 8c3b 4d66 90be 6dfb c13e
00000280: 4269 ffbd be9e a93e 145c 1f3e 5fe8 a3be
00000290: 2dc7 cdbe 6016 7d3e ddcf 143e 7fb1 93be
000002a0: 1e28 893c af2d eabe 8c59 e33d 4d77 b8bd
000002b0: 47b3 283d 77a0 38be c6de e3bd b5b0 8abe
000002c0: d0d6 7e3e e80b 95be 5e24 56be ad62 4e3d
000002d0: 8965 6f3d 7a07 edbd 7dc6 843c aa0b 843e
000002e0: c26f f83d 1c58 863e 9d0d f93c 1cfd 103c
000002f0: ee5c 9fbb 09b2 c3be 22c4 c6bd 0977 673e
00000300: ac1e 84bd 6e33 503d 92f6 62bd 201e 313e
00000310: dec8 113e b175 f4bb 1e95 ca3e ea5f 83bd
00000320: cc1f ab3e 855f 4b3e aabe 643d 4f2f b03e
00000330: 2d7a e93c 5b81 453d 0a59 02be 894e 1d3e
00000340: 6dce 213e ec3b e93d a7a2 4c3e be62 2abd
00000350: 0f85 54be c461 8dbe 9b01 c8be 8bbb 4a3e
00000360: deb3 3abe dddd d3bd e007 53be 75fb 4f3e
00000370: 422b 533d 2421 6cbd 4deb 00be 5635 223e
00000380: a4a6 a3be 126f 5e3e 8ecb d63e 0a95 88be
00000390: b816 cf3e 6a43 0ebe e0ee 203e 0128 60bd
000003a0: 7dd0 873e c422 cd3e 72a5 2b3c 850a 9d3d
000003b0: c40c 2e3e e926 02bf e51a 11bd 8a66 48be
000003c0: 8db4 80bd 0fa5 e03e 2ec2 e43e f123 85be
000003d0: 6500 ebbd c672 c6be 924b f53c b914 033d
000003e0: 7a9d d13d 5e5f 43be d2f4 fa3d 1c6f eb3d
000003f0: 74ad 9d3d a98f 113e 5013 2ebe 7f55 a0be
0.64779145 -0.261227 -0.29450142 -0.65003985 -0.2878836 0.45749608 -0.3047671 0.33322757
-0.005853341 0.26469684 -0.21268076 0.19990589 -0.052032847 -0.17455234 -0.091442145 0.07028132
-0.05631822 -0.047442097 -0.34018108 0.07183984 -0.17438884 -0.39982194 0.32215777 0.19443813
-0.094074756 0.3041531 -0.027295202 0.03875089 0.27137578 -0.28350607 0.11898963 0.29090577
0.10092279 0.2567236 -0.097593285 -0.100268185 0.02804442 0.048896957 0.32292444 -0.098068155
-0.105078824 -0.27240813 0.1745696 -0.0023221 -0.3084455 0.29900828 -0.3729865 0.11770158
-0.19539097 0.29698086 0.2525976 -0.5038455 0.010354487 -0.33175448 -0.27018994 -0.22139119
-0.24402688 -0.14946276 0.064085945 -0.0011042975 0.11737559 0.16841325 -0.07488571 -0.321108
-0.51960397 0.15772934 0.3288864 0.42026857 0.3307254 -0.03918579 -0.20334662 -0.018676031
-0.116241775 -0.39976776 0.41818407 -0.47313046 -0.15712366 -0.16701348 -0.3045607 -0.049692404
0.027730212 0.30220807 0.28859216 -0.30277014 -0.20964587 0.29154006 0.03564429 0.19623944
0.034985296 -0.11015725 -0.32390654 0.22680579 0.074301295 -0.33148062 0.46589467 -0.38865763
-0.11749939 -0.039716873 -0.06412916 0.72168523 -0.21778595 0.21160482 -0.35259607 0.16648282
0.38642818 -0.43181306 0.40505666 -0.43532065 -0.001564183 0.3002856 -0.0390845 0.19810817
-0.028711978 0.23478699 0.0946702 -0.48938957 0.048108637 -0.24753451 -0.35676658 0.27999902
0.22678937 0.29163846 0.1289429 -0.04091007 0.33031324 -0.17284143 0.4860777 -0.009778463
0.29033747 -0.13031426 -0.377449 0.3997137 0.2563385 0.1113939 -0.38742512 0.2385093
0.10583765 -0.1253202 0.22132291 -0.32801422 0.0328857 0.09812547 0.031311825 0.1844047
-0.24980599 -0.54188275 0.26722568 0.5604674 0.32160506 0.045180384 0.19048347 0.052766223
0.07860833 0.1592245 0.3527014 -0.4027534 0.13902111 0.0042870813 -0.2820305 0.37887135
-0.12471248 0.33128923 0.15562469 -0.32013223 -0.40191022 0.24715567 0.14532419 -0.28846356
0.016742762 -0.4573798 0.11101064 -0.0900713 0.041186597 -0.18029962 -0.11126475 -0.27087942
0.24886632 -0.29110646 -0.2091231 0.050387073 0.05844644 -0.11573692 0.016207928 0.2579015
0.12130691 0.26239097 0.030402 0.0088494085 -0.004863373 -0.38221768 -0.09705378 0.22604002
-0.06451163 0.050830297 -0.05541093 0.17296648 0.14236781 -0.007460319 0.39566892 -0.064147785
0.33422697 0.19860657 0.055845894 0.34411094 0.02850064 0.048219066 -0.12729278 0.1536199
0.15801401 0.11388382 0.19983922 -0.041598074 -0.20753883 -0.27613652 -0.39063725 0.19798104
-0.18232676 -0.103450514 -0.20608473 0.20310767 0.051554926 -0.057648793 -0.1258976 0.15840659
-0.31963074 0.21722057 0.41952175 -0.26676208 0.4044702 -0.13892904 0.15716124 -0.05472565
0.2652625 0.40065587 0.010476457 0.07668022 0.16997057 -0.5084062 -0.03542604 -0.19570366
-0.06284437 0.4387593 0.44679397 -0.26003984 -0.114746846 -0.3875944 0.029943261 0.032002185
0.102351144 -0.19079348 0.12253727 0.11495802 0.07699099 0.14214958 -0.16999555 -0.31315228

rnn.bias_ih_l0 f4 [16]
00000000: b07d e63d ab1f db3d 58c0 f2bc 55d5 d63b
00000010: 6c80 dc3d f89f 943e 3072 183e 0130 403e
00000020: 5a3b 1abe 30c2 f4bd 5c60 42be 712c 8e3d
00000030: 6d57 003d b11c 243e 3206 b43d dd86 bdbd
0.11254442 0.106993996 -0.029632732 0.006556193 0.10766682 0.29028296 0.14887309 0.18768312
-0.15061703 -0.11951101 -0.1898207 0.0694207 0.031333376 0.1602657 0.08790244 -0.09254239

rnn.bias_hh_l0 f4 [16]
00000000: e855 813a 53c3 c53d 651a 07be 9189 cebd
00000010: 0b45 4dbb d8a5 743e e9fb 37bc bc65 7b3d
00000020: 2231 2bbe 3754 6dbb 05d9 1c3e da12 f2bc
00000030: 4cfd d73d f2e6 963c 9d70 c6bd 58e1 9c3d
0.0009867521 0.09656396 -0.13193662 -0.100848325 -0.003132167 0.2389139 -0.011229494 0.06137632
-0.16717961 -0.0036213526 0.15317161 -0.029550005 0.105463594 0.01842067 -0.09689448 0.076601684

rnn.weight_ih_l1 f4 [16, 16]
00000000: 70fd 073c 60d1 443d cfe0 e9bd bcf9 c83e
00000010: c445 313e fb68 ce3d 34b9 cdbd 114e 513e
00000020: cbda ec3d 3475 0dbe 71bb 273d cc2a a4be
00000030: 463c aebd 3838 893d b0ba ed3c 9058 323e
00000040: d344 22bd 8e1e f7bd 2d6b e73d eea9 403d
00000050: 811c 8d3d e868 ab3d 1cf0 37be 3213 cfbc
00000060: 6432 363d a5e8 d63d 1dae f8bd d85b 84bd
00000070: 9d8b f73a 050c 27be f445 57bd 5871 85be
00000080: 49ae 7d3d c8cd 913f 59ae 9a3d b514 acbe
00000090: c8af acbd 166a 12b9 d981 1ebf 5a43 80bd
000000a0: 24d4 c8be 134d 4abd 2d89 e0be 4673 0b3e
000000b0: 9269 863e 0bb5 1e3e 6fed 0d3e 02ac 60be
000000c0: 4176 39bd 618d 1ebe 7123 5cbd 2c24 563d
000000d0: 695e a03d 04c7 9c3d ca65 163e e3f4 d63c
000000e0: 5c04 8d3c 887a e13d 7d61 053e ea75 9fbc
000000f0: 63de eabd 41a6 83be 1625 4b3d 07ce ce39
00000100: 2e18 163e 3403 3c3d 952c 5fbd 686d f9bd
00000110: f6bf 87bc b210 1d3e 9684 003e 5bd3 4ebe
00000120: fb8a e5bd 3c29 843d 19f5 64be c88f 54bb
00000130: 1735 82be 04e5 19be 6af4 2d3e dbe9 88be
00000140: 1dcb 1abc 27d7 b63e e8c5 7d3d fe96 9dbe
00000150: 21a0 1a3e 8f67 8ebe e64b 573c 0a6e 86be
00000160: f3f2 ab3e 742b 913e 0247 43bd 171b be3d
00000170: 932c 463e 68f6 60be 2274 84bd 1df8 64be
00000180: db34 f83d bb48 cabd 317d b33d 0abb 4dbe
00000190: bb26 323e 20d6 b8be fc07 17bc 1604 71be
000001a0: 1acd a9bc 5033 e13d f677 9bbd e8a2 f53d
000001b0: ceea 65bd 1302 f13c 157f 23be b0b0 60be
000001c0: 754a 703e 71a9 453e 28d8 76be 6265 cebc
000001d0: 1a3f 183c 8f9a 22bd 596b 0d3d db65 823b
000001e0: 1bbd a3bd 58f1 103e e2a8 2cbc 3a60 333e
000001f0: 9f79 f23d a808 563d d4c5 c4bc edb9 06be
00000200: a144 cfbd 260e 55be f702 90be ec7a 643e
00000210: 86b7 4c3c 706f f2bc c3c9 aa3d 01b6 d0ba
00000220: 4216 27be 4426 9cbc bac3 643d af73 833d
00000230: 6995 24be dc64 29bd 3767 1cbe 93ea 21bd
00000240: e373 883e 22f1 09bc 3019 d0be 9ada ee3e
00000250: 4b93 bfbc 2979 07bd 1059 f3bd df0b c63d
00000260: ac6a 42bc 608a 63bd 29bd ee3d cf66 20bd
00000270: 537b 0abe e721 e33e 9839 98bd 93d2 b53e
00000280: 33a0 e13a 7e82 e53e e8db 1e3e dec7 01bf
00000290: 1030 b33d 256b d1bd d1e5 2c3d ed04 37be
000002a0: 77ff 443e 73d2 a33e 8fa5 d5be a02e 023e
000002b0: 217d 633c 2aa8 35be d046 97bd db87 95be
000002c0: a174 a2bd b1f8 d83d 4cf9 cebc 71da 1fbe
000002d0: 66f1 06be 08f1 02bf 61de c73c 24dd 61be
000002e0: e6d8 5b3e d121 b73d 9e60 2cbe 9e93 d73d
000002f0: 27cb 3bbd 9b5a e23d 542d b5bd 2ca1 0cbe
00000300: ccdf cb3e 306e 14be ea2b b5be fe47 0d3e
00000310: 802d 9cbe bdbc 003f 2751 243e a34f 8d3e
00000320: b3db a5be 914c 23be 5bfd 253d 5189 6b3d
00000330: 0567 f93c f073 093d 05ff 5e3e 6a3b e93d
00000340: 1de2 93bc 9a8e bebe b67f 593d 8630 893e
00000350: b0ae c13d 7dc9 9ebc fd15 86bb cd5b 833d
00000360: 59fa 8cbe fd03 b1be d767 8f3e 627d 333e
00000370: 5801 b03d adc7 c63d a25b c73e 8316 cc3e
00000380: 9232 36bd fdfa 94bc 8cd9 183d d824 3dbe
00000390: 7cdd 06bd 5d3a 0dbd 9d4d 8cbd 6818 98bd
000003a0: ce2c fcbd 920c a93d 0fa2 0e3e 3e0f 7ebc
000003b0: f317 cebe 0fab 1cbe bdab 87bb a779 41be
000003c0: f1c5 c43d e839 dbbd 3244 8a3a f932 943b
000003d0: fcc2 12be 5855 e0bb 218c 72bb 49e3 04be
000003e0: 9399 48bd acbf e03d f34f dabc 8997 813d
000003f0: cf7a fc3c 265e 1e3e 6280 b6bc 0f10 15be
0.00830017 0.048051238 -0.11419832 0.39253032 0.1731177 0.10078617 -0.1004509 0.20439936
0.11565169 -0.1381424 0.040950242 -0.320639 -0.0850759 0.06700176 0.029019684 0.17416596
-0.039616417 -0.12066375 0.11299739 0.047037058 0.06890202 0.08369619 -0.17962688 -0.025277708
0.04448165 0.10493592 -0.121425845 -0.0646283 0.0018886212 -0.16313179 -0.052556947 -0.26063037
0.06193379 1.1390924 0.075527854 -0.33609548 -0.08431965 -0.00013963165 -0.6191688 -0.06262846
-0.3922435 -0.04938991 -0.43854657 0.13618192 0.2625242 0.1549875 0.13860105 -0.21940616
-0.04527879 -0.1548362 -0.053744737 0.05228059 0.07830507 0.07655147 0.14687267 0.026239818
0.017213993 0.11009699 0.1302547 -0.019465405 -0.11468198 -0.2571278 0.049595915 0.00039444884
0.14657661 0.045901492 -0.054485876 -0.12179071 -0.016571026 0.153384 0.12550578 -0.20197813
-0.11208149 0.06453177 -0.22359122 -0.0032434333 -0.2543113 -0.15028769 0.16987768 -0.26740918
-0.00944784 0.35711023 0.061956316 -0.3077926 0.15100147 -0.27813384 0.013140654 -0.26255828
0.33583793 0.28353465 -0.04767514 0.09282511 0.19352941 -0.21968997 -0.06467463 -0.22360273
0.121194564 -0.098771535 0.08764113 -0.20090881 0.17397587 -0.36100864 -0.009218212 -0.23536715
-0.020727683 0.10996115 -0.0759124 0.119939625 -0.05613213 0.029419934 -0.15966447 -0.21942401
0.23465903 0.19302918 -0.24105895 -0.025194827 0.009292388 -0.03969818 0.034526203 0.0039794273
-0.079950534 0.14154565 -0.010538312 0.17517176 0.11839604 0.05225435 -0.024020113 -0.13156863
-0.10120512 -0.20806178 -0.28127262 0.22312516 0.012494927 -0.029594153 0.08339264 -0.0015923382
-0.16317084 -0.019061215 0.055850722 0.06418549 -0.1607262 -0.041355953 -0.15273748 -0.039530348
0.26650915 -0.008419307 -0.40644217 0.46651155 -0.023385664 -0.03307453 -0.11882222 0.09670233
-0.011866253 -0.055551887 0.11657173 -0.039160546 -0.13523607 0.44361803 -0.0743286 0.35512218
0.0017213881 0.4482612 0.15513575 -0.506956 0.087494016 -0.10225514 0.042211358 -0.17872973
0.19238077 0.31996498 -0.41727874 0.12713099 0.0138848135 -0.17739931 -0.07386553 -0.29205212
-0.079324014 0.10594309 -0.025265358 -0.15610673 -0.13178024 -0.51149035 0.02439803 -0.22057015
0.21469459 0.08941997 -0.16833732 0.105262026 -0.045848038 0.11052438 -0.08846536 -0.13733357
0.3981918 -0.14495158 -0.35385066 0.13796994 -0.30503464 0.5028799 0.16046582 0.2759982
-0.3239418 -0.15947177 0.04052482 0.057504002 0.030444631 0.033557832 0.2177697 0.113882855
-0.018052155 -0.3721817 0.05310031 0.26794833 0.09457147 -0.019383186 -0.0040919767 0.06413994
-0.2753475 -0.34573355 0.2800891 0.17528298 0.08594006 0.09706054 0.38937098 0.39860925
-0.04448182 -0.018186087 0.037316844 -0.18471086 -0.032926068 -0.034479488 -0.06850741 -0.0742653
-0.12313233 0.08254351 0.13929008 -0.015506564 -0.40252647 -0.15299629 -0.004140346 -0.18894063
0.09608067 -0.10704404 0.0010548888 0.004522678 -0.14332193 -0.0068461113 -0.0037009793 -0.12977327
-0.048974585 0.109740585 -0.02664945 0.06327731 0.030820278 0.15465602 -0.022278015 -0.14556907

rnn.weight_hh_l1 f4 [16, 16]
00000000: 49ad c33d f464 e73d a614 bdbd ad14 8f3e
00000010: 01c0 02be 4d22 46be a633 823d 6585 c3be
00000020: d975 15bf 5ba2 3fbe 44aa 813d e7fa 703e
00000030: 369f 9a3e 6227 773d 03fb f43c eb0d ad3e
00000040: 2d02 bd3d 9896 dd3e bec8 a1be 5166 02bf
00000050: 234a 7e3e 9bcb c83c 19c4 80be be78 4d3e
00000060: 59d7 7cbe ddf2 193e 26ec c53a ac0d b2be
00000070: 586c 8c3d 9ea7 a13e 1b06 38bd a63b e0bd
00000080: 263c ffbe e694 a43c 1169 c13e 2158 c6bd
00000090: eea0 7b3d 8124 53bd 8906 bd3c 8f91 3bbd
000000a0: 6021 d03d b163 65be 6f62 85be e361 b93d
000000b0: 5a16 0abf 7e38 85be c477 a73c 0f13 26bd
000000c0: ae54 d13d cec2 20bf c206 083f f1e2 033f
000000d0: 9893 d5bd 4087 b5be c723 7e3d 63e8 6d3e
000000e0: 877d 60be 12ae c1be 8e85 003d 1dc1 3c3e
000000f0: 7f92 163c 7e0d f3bd 3d8c 13be fb0d e93d
00000100: e062 4fbe 13c5 9e3e 6da6 b43d c975 9fbe
00000110: 69ee b93e 9f84 19be 63a4 63be 6c01 2dbd
00000120: fdfb d5bd b609 45bd 71cb 02be eccc 47be
00000130: b515 ccbe 0acf 11be 963e 31be ee96 00be
00000140: 9616 d73c 9da3 0b3e 9d02 0dbd 229a 94bd
00000150: 7abd 5ebd 31e4 643e 5d3e 10bf 6c74 4dbe
00000160: 96e2 f93e 46c2 d23d 9b7b 1bbe 4fda b5be
00000170: c4d3 adbd d485 17be 45af b3bd 0318 17be
00000180: 8bee 113f 6b72 8e3d cb47 42be b349 c33e
00000190: 9fe3 55be b5d3 b1be 4d54 ac3e dc1a 36be
000001a0: 9d05 433e 0b17 763e 7866 723e 2cdb ba3e
000001b0: 9c4d 2ebd cd8b e43a 1a49 3fbe 9f7c 20be
000001c0: c7d8 88be 3fe2 883e 5073 0fbe f745 643e
000001d0: b43e 553e 0eb4 21be 5604 47bd fc57 873f
000001e0: 49d1 09be 2517 3d3e c539 b1bc 0a2e a93c
000001f0: 5ecd 32bf a203 f33e 4db9 3fbd 6df7 55bf
00000200: 0c49 82bd 1efe 32be edaf abbd b8fa b83d
00000210: 0b2f 053e e890 eb3e 3fc6 26bf 40e8 a2be
00000220: 5895 063f 419e d2bd 8a23 82be d668 64bd
00000230: f097 59be 406a 8d3d c36f 513e 4af7 17be
00000240: 914d 4abd fb16 dfbd 0c49 77be 8a0a 78be
00000250: 73f5 f73d 47d1 3e3e a5ed 193e 302f 293e
00000260: 9681 56bd f98f ab3d 7adf da3e 71db 0cbd
00000270: 456d 2c3c b8e2 143f 7bd1 b33e 37ca 093d
00000280: a9c3 603e fc70 933d 9078 a2be 076c 53bd
00000290: 0870 c43d 3932 0e3c d69d 0bbe 7109 e63c
000002a0: 9fa2 473d 7c50 913e 3098 d23c 6874 40be
000002b0: 3d27 063e c450 8f3d aafc 843e a563 6cbd
000002c0: f261 193f ca30 b43d 7f0e 7abe 42ad 4f3e
000002d0: d4d0 aabe 8dad babc a8f5 9f3e 95e0 523e
000002e0: 36d1 a6be cd15 d7bd 50d8 59bd 9e1f 683e
000002f0: 2640 0b3e 03ae b93d 8cf3 383e a2b1 2dbd
00000300: 159a 6ebd 3cbd 333e 3ac0 1d3d 217f 42be
00000310: b377 863e b82f 2b3e 407b 823d 6d65 4fbe
00000320: 6ad2 c1be 672f bebe 1440 8e3c 29da 153e
00000330: 00a5 f93e e9d5 99be 8240 ea3c edcf 7b3d
00000340: 3e20 47bd 7ecf 6c3d 6f94 9b3a 7b89 ccbe
00000350: d25c 8a3d 1b8b 553d a5c4 5c3e 8904 883c
00000360: a25c 923d efb1 533d 260b b93e 82e9 233e
00000370: f903 94be 4075 63bc 4311 d83e fb06 babe
00000380: 6068 243e b3f8 913c c70a cabc 2e52 e3be
00000390: f5ca 07be 28c4 a53e 472a a9be 4579 30be
000003a0: bfb3 49bd 210e 323e 3186 b33e f63c 9a3e
000003b0: f964 a53c 1b05 9e3e 9639 2a3f c6bf cabc
000003c0: 0c0a ef3c a05a 04be 29d1 7c3d 6e71 b3be
000003d0: e34b 23be da2a 523e 8f63 ea3d 1537 e3be
000003e0: e36b 8e3e 3dac c3be c0be fc3c 757d c13d
000003f0: 7fa5 ff3d 3551 80be 5523 05bd f6dd 823e
0.09554536 0.11298552 -0.09232454 0.27945462 -0.12768556 -0.19349022 0.063575074 -0.3818771
-0.58382946 -0.18714277 0.06331304 0.23533212 0.30199593 0.060340293 0.029904848 0.3379968
0.092289306 0.43278956 -0.31598467 -0.5093737 0.24832968 0.02451115 -0.2514961 0.2006559
-0.24691524 0.15034051 0.0015100285 -0.34776056 0.068566024 0.31573194 -0.044927698 -0.10948877
-0.49850577 0.020090532 0.37775472 -0.09684778 0.06143277 -0.051548485 0.023074405 -0.045793112
0.10162616 -0.2240131 -0.2605166 0.090518735 -0.53940356 -0.26019663 0.02044285 -0.04054552
0.102212295 -0.6279725 0.5313531 0.5151816 -0.10428542 -0.3545475 0.06204584 0.2323318
-0.21922885 -0.37828118 0.031377368 0.18433042 0.009190201 -0.11867808 -0.14408965 0.1137962
-0.20252562 0.3100973 0.08820806 -0.3114455 0.36314705 -0.14991997 -0.22230677 -0.042237684
-0.104484536 -0.048104964 -0.12772919 -0.19511765 -0.3986031 -0.14239135 -0.17309031 -0.12557575
0.026255887 0.13636632 -0.03442632 -0.07255961 -0.054379918 0.22352673 -0.5634516 -0.20063943
0.48805684 0.10290961 -0.1518387 -0.3551812 -0.08487657 -0.14797145 -0.087736644 -0.14755253
0.5700461 0.06955417 -0.189727 0.38142166 -0.20887612 -0.34731832 0.33658066 -0.17783684
0.1904511 0.24032228 0.23671901 0.3649534 -0.042554483 0.0017436683 -0.1868023 -0.15672539
-0.26727888 0.26735112 -0.14008832 0.22292314 0.208247 -0.15791342 -0.04858812 1.0573726
-0.13458742 0.1846586 -0.021633992 0.020651836 -0.69844615 0.4746371 -0.046807576 -0.83580667
-0.06361589 -0.1747975 -0.083831646 0.09032196 0.13006227 0.46008992 -0.6514625 -0.31817818
0.5257163 -0.10284091 -0.2541774 -0.05576404 -0.21249366 0.06905031 0.2045279 -0.14840427
-0.04939038 -0.10893055 -0.24148959 -0.2422277 0.121073626 0.1863452 0.1503206 0.16521907
-0.052369677 0.0837707 0.42748624 -0.034388963 0.010524099 0.58158445 0.35120758 0.033640113
0.21949638 0.071992844 -0.31732607 -0.051616695 0.09591681 0.008678966 -0.13634428 0.028080674
0.048739072 0.28381717 0.025707334 -0.18794405 0.13100906 0.06997827 0.25974017 -0.057712216
0.5991508 0.08798368 -0.24419592 0.20280936 -0.33362448 -0.022787834 0.31242108 0.20593484
-0.3258149 -0.10502205 -0.053184807 0.22668311 0.1359869 0.09066393 0.18061656 -0.042405732
-0.058252413 0.17552656 0.0385134 -0.18993808 0.26263198 0.16717422 0.06371164 -0.20253535
-0.37855846 -0.3714554 0.01736454 0.14634003 0.48758698 -0.30046013 0.028595213 0.06147759
-0.048614733 0.057815067 0.0011869798 -0.3994864 0.06755985 0.052134614 0.21559389 0.016603725
0.071465746 0.051683363 0.36141318 0.16007045 -0.2890928 -0.013882935 0.4220067 -0.3633345
0.16055441 0.017818784 -0.024663342 -0.44398636 -0.13261016 0.32376218 -0.33040068 -0.1723376
-0.049243685 0.17388202 0.35063317 0.30124635 0.02018975 0.3086327 0.6649412 -0.024749648
0.029179595 -0.12925196 0.06172291 -0.35047477 -0.15946917 0.20524159 0.114447705 -0.44377962
0.27816686 -0.38217345 0.030852675 0.09447757 0.12482738 -0.25061956 -0.0325044 0.25559968

rnn.bias_ih_l1 f4 [16]
00000000: bc7d 5ebe c953 143e 6544 37be 80c0 213e
00000010: d12a bc3c 8e15 b5bb 9659 3f3d 48da 1f3e
00000020: 9c68 4dbe 9240 bd3d 098a 69be 8f82 bdbe
00000030: f5cd 1dbc 017f c2be 4cc9 58bd b9dd 873e
-0.21727651 0.14485087 -0.17897184 0.15796089 0.022969635 -0.005526251 0.046716295 0.15610611
-0.20059437 0.092408314 -0.22806562 -0.3701367 -0.0096316235 -0.3798752 -0.052926347 0.26536348

rnn.bias_hh_l1 f4 [16]
00000000: c875 57be e2d3 7f3e bc86 783e 6448 ab3d
00000010: 11bb b23d ca17 473c 3719 d23d 6fe9 173e
00000020: 1eba e43d ed8f 90be ff62 8dbe e91e 04be
00000030: 76d3 a7bd 00ed 573d a8e8 8ebe 82b9 72bd
-0.21041024 0.2498317 0.24270147 0.08363417 0.08727086 0.012151668 0.102587156 0.14835142
0.111683115 -0.28234807 -0.2761459 -0.12902416 -0.0819463 0.052716255 -0.27911878 -0.059258945

fc.0.weight f4 [16, 16]
00000000: 5212 34bd 7066 c0be 71d5 843e e414 0cbe
00000010: 14c5 10be bce6 b83e d814 c5be fb3c f4be
00000020: 6cfe e93e ebe4 de3d 6a4a f4bd 5eb0 6ebe
00000030: a585 23be 5c34 eebd 5b55 473e eaab 69bd
00000040: de2d 083e ad3e fc3c e93b b2be 654d 063f
00000050: 79ba c03c e721 3bbf 819f 9b3e 9923 373f
00000060: 9014 09bf 6cf8 fe3e 79b5 eabe 4a20 b23e
00000070: 0fa6 8b3d 2f6f a23e 9a5a bcbe fd40 dcbe
00000080: 9ed4 20be 8dcc 0e3f 063a efbd e29c 0cbf
00000090: d385 fd3e b91e fa3e 660d ddbe 54d8 493d
000000a0: 8ef5 ad3e 15e8 9a3e c628 cebd 6796 85be
000000b0: 5a5c afbd 1c15 f33c 0737 ef3e 9bf9 c2bc
000000c0: fdf3 babe ff21 2fbf 1f4d ec3e 562c 1a3f
000000d0: f6d2 92be 4ddb 53bd df18 c8be d844 9f3e
000000e0: 8ea8 053f a9ab 823c 7a82 77be f4ba 8ebd
000000f0: 503d 18bf b1eb 87bd a9ef 9dbe 0415 e23d
00000100: 2244 c6be bfde 0abf 88b2 8b3e 8552 d93e
00000110: 9580 d53d 5015 4dbe 47cd bb3d 799d a53e
00000120: 2ffb ee3e 14cf e8bd 9023 9cbe 1e1c 8cbe
00000130: b570 b5be d6f5 abbe e56f aabe 56ac 4bbe
00000140: 83be 3cbb 4259 1ebf 62f4 413e 63df 393f
00000150: 1905 95bc bd08 cdbe 28d7 843e 9056 1fbe
00000160: 2ffa f2bd 1e91 14bf d6c7 513d 2352 ec3d
00000170: 4990 a73e 6cee d1be 141b 22bd 8210 b63e
00000180: dc11 c3bc 97ae ccbe f44a ecbd bda4 903e
00000190: 01db c6be 27af 953d eb2e 1c3e 05cd 173c
000001a0: 9765 66bf b753 7ab9 3467 f2bd 44df a43e
000001b0: 194a 8d3e 69d9 d03d f43f 9bbe ff7b acbd
000001c0: 6c15 e9be f66f 3abd 301e 4a3e d42d 253e
000001d0: 1668 a83e 5ef3 bcbd 3be1 a5be aa49 9dbd
000001e0: 1063 53bc 8424 80bd 23a7 f5be 9044 7fbe
000001f0: d544 91be 0e2e 22be 7241 43bf 8a19 88be
00000200: 6916 67be 5a87 43bb 8d4a 843e ef84 c53e
00000210: 1dac c23e 8c1a edbe 681d 883e b29d 3e3f
00000220: 0aa9 c6be e9f1 4e3e 7a58 f9bc 9005 853e
00000230: 72db 01bf 1fb2 1e3e 9783 71be dcb4 14bf
00000240: 2398 54be 6feb dbbd 70b5 9d38 e8f5 e2be
00000250: 3f63 b1bc 90f6 903e 4a2a 0f3f 5543 073f
00000260: e208 29bf 3e72 23bf 679b 13be cc69 713e
00000270: e674 9abe 92fb 73bd e443 d1be 6497 cdbe
00000280: 8c06 2abe 9f77 e53e 868c bebe 911a 38bf
00000290: a9ed de3d fc13 ee3e 70a9 2cbf e5df 633d
000002a0: 37d7 833e 9975 4ebc 8c22 16be ce2c 9abd
000002b0: 790b f3bd ec61 0b3e e208 083e 6e01 493d
000002c0: 3aa8 953d 1b25 babe 69a3 1f3e 16f0 d03e
000002d0: 182a 91bd 5c27 983d 8c32 533e f60b 98be
000002e0: 573c e8bd 5794 f0be 3cbc 25bd 6661 53be
000002f0: 1a6d 933e 6fd0 06bf 300b 00be 242d 683e
00000300: 8ef7 543e 47fb c9bc 5379 91bd acf4 263e
00000310: 20f7 c1be be36 e8be 1a4f 083f f9e5 92be
00000320: 4f96 d9be c7ba 89be 85b1 16be 3358 c63e
00000330: 4a6f 233f 3723 bcbe b9dc 24be 99b3 9c3d
00000340: 85e3 29bd 8563 e9be 8806 6e3e a323 6e3e
00000350: 927c 80be 49c9 043c b485 ae3e ab14 99be
00000360: b353 60bb fc49 a7be 45c5 99be 612f a43d
00000370: 7d8c 963e 7ebb dcbe f899 003d 70c2 6e3e
00000380: edd4 0dbe 39df 22be 97c3 97bd 852f 87be
00000390: 286b 08be 8af9 ea3b 59b3 04be 8c71 303d
000003a0: 268a d23e 890c f23a e26d 3bbd 45c8 85bd
000003b0: 146b 51be afee 43be 47ab 3bbf 733e 7e3e
000003c0: 9cb8 d1bd e13b 42bc 082e 28bd 496c f9be
000003d0: c1cb c33d cd88 ba3e ae5d c8be e5c1 89be
000003e0: 03e4 813e 1c2a c4ba e7d6 6abd b73d 75be
000003f0: 49df 313c 9f71 d8bd 614a 18bc 3941 0c3e
-0.043962784 -0.37578154 0.25944093 -0.13679844 -0.1413768 0.36113536 -0.38492465 -0.47702774
0.4570192 0.108835064 -0.11928256 -0.23309466 -0.1596895 -0.116310805 0.19466154 -0.057048716
0.13298747 0.030791605 -0.34811333 0.52461845 0.023526417 -0.73098606 0.3039513 0.7153869
-0.53547 0.49798906 -0.45841578 0.3479026 0.068187825 0.3172545 -0.36787874 -0.43018332
-0.15706107 0.5578087 -0.11680989 -0.54926884 0.49516162 0.48851565 -0.43174285 0.049278572
0.33976406 0.3025519 -0.10066371 -0.2609131 -0.085625365 0.029673152 0.4672167 -0.023800662
-0.36514273 -0.6841125 0.4615259 0.602239 -0.28676575 -0.051722813 -0.39081475 0.3110721
0.5221032 0.015950995 -0.24170867 -0.06969252 -0.59468555 -0.066367514 -0.3084691 0.11039165
-0.38723856 -0.54246134 0.27284646 0.4244577 0.10424916 -0.20027661 0.09170013 0.32346705
0.46676013 -0.11367622 -0.30495882 -0.27365202 -0.3543755 -0.33585995 -0.33288494 -0.1988996
-0.0028800077 -0.61854947 0.18940881 0.72606486 -0.018190907 -0.4004573 0.259454 -0.15560365
-0.11864125 -0.5803393 0.05121597 0.11539104 0.32727268 -0.41002214 -0.039576605 0.3555947
-0.023812227 -0.3997695 -0.11537734 0.28250685 -0.38838962 0.07308798 0.15252273 0.009265189
-0.89998764 -0.00023873044 -0.11836091 0.32201588 0.27595595 0.10197718 -0.3032223 -0.08422088
-0.45524156 -0.04551693 0.19738078 0.16130763 0.3289191 -0.09226106 -0.323984 -0.07680066
-0.012902036 -0.06256965 -0.47979078 -0.24928498 -0.28372827 -0.15837881 -0.76271737 -0.26581985
-0.22567143 -0.0029835314 0.25838128 0.38577983 0.38021937 -0.46309316 0.26584935 0.74459374
-0.38800842 0.20209469 -0.030437697 0.25980806 -0.5072547 0.15497635 -0.23585354 -0.5808847
-0.2076116 -0.10738265 7.520139e-05 -0.44328237 -0.02165377 0.28313112 0.55923903 0.52837116
-0.6602918 -0.63846195 -0.1441475 0.23575515 -0.3016731 -0.059566088 -0.4087211 -0.40154564
-0.1660406 0.44817826 -0.37216586 -0.7191554 0.10885174 0.46499622 -0.6744604 0.055633444
0.25750133 -0.01260128 -0.14661616 -0.07528077 -0.118674226 0.13611573 0.13284639 0.04907363
0.07307477 -0.36356434 0.1558968 0.4080817 -0.07088107 0.07429382 0.20624751 -0.29696625
-0.11339634 -0.46988174 -0.040462717 -0.20642623 0.28794175 -0.52661794 -0.12504268 0.2267347
0.2079756 -0.024655951 -0.07103219 0.16304272 -0.37883854 -0.45354265 0.532457 -0.2869108
-0.4249749 -0.26900312 -0.14716156 0.38739166 0.6384169 -0.36745617 -0.16099824 0.07651443
-0.041476745 -0.4558374 0.23244679 0.23255782 -0.2509504 0.008104631 0.34086382 -0.2989858
-0.0034229576 -0.32673633 -0.30033317 0.08016849 0.2940406 -0.43111795 0.031396836 0.2331636
-0.13850756 -0.15905465 -0.07410353 -0.26403442 -0.13322127 0.0071708607 -0.1295904 0.043077037
0.41121024 0.001846687 -0.04575909 -0.06532339 -0.20451003 -0.1913402 -0.73308223 0.2482851
-0.102402896 -0.011855097 -0.041059524 -0.48715428 0.09560347 0.36432496 -0.39133972 -0.26905742
0.25369272 -0.0014966163 -0.057333853 -0.23949324 0.010856458 -0.105685465 -0.009295077 0.13696755

fc.0.bias f4 [16]
00000000: 15aa 4d3e 0c07 5d3e 2a0a 8f3e 18d9 afbd
00000010: da1f 1f3e c720 803e 4e5b 713e dba4 1b3e
00000020: e5db 2a3d 4738 b1bb bc3d ce3d 2120 2f3e
00000030: e694 f23e f869 c23e b51b b63d 1e0b 0e3e
0.20084412 0.2158472 0.27937442 -0.08586329 0.15539494 0.25025007 0.23569986 0.15199606
0.041713614 -0.00540832 0.10070369 0.171021 0.47379225 0.37971473 0.088920034 0.13871428

fc.2.weight f4 [5, 16]
00000000: 3a7f 423e e1a0 1cbf 91fd 30bf 04b4 f23e
00000010: 23d0 033f 08be 13bd cb23 57bf 78d8 453e
00000020: 5d71 68bf 9cc3 2bbe ca28 f7be 573b 503e
00000030: 3c56 82be 9c96 f83d dedf ec3d 4792 88bd
00000040: 5f91 203e 12d1 23bf ba97 80be d477 11bf
00000050: ba71 1fbf 8453 4fbf 7d41 b8bd fe3d 883e
00000060: b3e7 0abf 27f7 0bbf d0d2 793e acd5 403e
00000070: 39c8 babe e59e babd a22c a53e 6320 633e
00000080: a44b 533e 883d 12bf 82de 953e a288 1abf
00000090: 05ff 42be 3eed 093d 146d e8be 21ca 04be
000000a0: f14a 7cbe 9398 26bf 0add 6d3e ba80 8a3e
000000b0: 340d 01bf 5427 b1be 1934 e3be fb97 1d3e
000000c0: b7fb fbbe c47d 2d3f 4071 90be 1420 4dbe
000000d0: 53fe 1b3e cc22 03bf 826f 1e3e d0e9 e93e
000000e0: 37db 913e 0fa8 4b3f 2f46 b3be 5402 1fbf
000000f0: f327 34be 8fad f0be 8b20 81bd 3835 a4be
00000100: f749 fcbe 84b6 6dbe be47 65be 7a6e 01bf
00000110: 4ae5 c5be 868c 593e d452 893e dd09 82be
00000120: 3495 03bf a6ef 12be ca02 f6be a459 963e
00000130: 6ed5 093f 27ea 743e 1a59 9bbe bb84 92be
0.18993846 -0.6118298 -0.6913691 0.47402966 0.51489466 -0.0360699 -0.8403899 0.19320858
-0.9079798 -0.16773838 -0.48273307 0.20335136 -0.25456417 0.121381015 0.11566137 -0.06668525
0.15680455 -0.6399089 -0.25115758 -0.5682347 -0.6228291 -0.8098681 -0.08996866 0.26609796
-0.54259795 -0.54674 0.24396825 0.1883151 -0.36480883 -0.09112338 0.32260615 0.22180323
0.20634323 -0.5712514 0.29271322 -0.60364735 -0.19042595 0.033673517 -0.4539572 -0.12967731
-0.24637963 -0.6507656 0.23228851 0.27051336 -0.5041077 -0.34600317 -0.44375685 0.15390007
-0.4921548 0.6777003 -0.28211403 -0.20031768 0.15233736 -0.5122497 0.15472224 0.45686197
0.2848756 0.7955331 -0.35014483 -0.6211293 -0.17593364 -0.47007415 -0.06305035 -0.32071853
-0.4927518 -0.23214155 -0.22390649 -0.505592 -0.38651496 0.21245012 0.26821005 -0.2539815
-0.5139954 -0.14349231 -0.48049003 0.29365265 0.5384129 0.23917447 -0.30341417 -0.2861689

fc.2.bias f4 [5]
00000000: ac42 ef3c 19e8 09be c0c8 60be f418 4c3e
00000010: 2271 b4bb
0.029206596 -0.13467444 -0.2195158 0.19931394 -0.0055066505
